NN/LSTM/model_whole-forest-45_finetuned.pt (torch, 145145 bytes, 6 tensors)

lstm.weight_ih_l0 f8 [256, 3]
0	0xbfba3705db4e690d	-0.10240208248288614
1	0x3fc3d30a66682d70	0.15487794876421956
2	0xbfc8eef4c7c2acd7	-0.1947923636811086
3	0xbfbd5b83ac25b954	-0.1146776480943335
4	0xbf6a5ab5bcabbec1	-0.0032170819807716138
5	0x3fc750829bae4fa2	0.18214447595221112
6	0x3fbd86835962f5d3	0.11533375675477169
7	0x3fc1e2967cd71b1c	0.1397274121829576
8	0x3fb957a2fecb84dd	0.09899347992497405
9	0xbfb3ad81b71856b9	-0.07686625213713229
10	0x3fba6b5f55631538	0.10320087275166123
11	0x3f4fe8d14733259d	0.000973798929771497
12	0xbfbfb00541916bba	-0.12377961016447517
13	0xbfaa5942b03bece4	-0.051462253582906375
14	0xbfab4831a39a1490	-0.05328517076581207
15	0x3fba1583b5395186	0.1018907849732554
16	0x3fc8f64d72781558	0.19501655663786255
17	0x3fc09ad8faeeda38	0.1297255730875848
18	0x3fb51fc0ce7cc8cb	0.08251576462933767
19	0x3fac0b24ee8aa306	0.054772523993341024
20	0xbfb72f734147009b	-0.09056778281865478
21	0xbfb2fd1c2bcd258e	-0.07417465276116372
22	0x3fcc09290659fe27	0.21902954874166022
23	0xbfd636f2853d51ca	-0.347103719822624
24	0x3fb46348ee4a0d87	0.07963996713265518
25	0x3fc257c91804d520	0.1433040015487359
26	0xbf41ac006a3e522e	-0.0005393030191834286
27	0x3fdaceca3dcb9fec	0.4188714602919379
28	0xbfd695ba44472916	-0.3528886477257783
29	0xbfeaa24a946df704	-0.8323109530462891
30	0xbfb716ad0b813642	-0.0901897576415758
31	0xbfc1faf7b698ab66	-0.14047142425382758
32	0x3fb209faf0e3dd14	0.07046478634935155
33	0xbfcbd185174fa4d7	-0.21733153951871628
34	0xbfb0bf7fcb035bb2	-0.06542204576849889
35	0x3fdb7ca49380f0d0	0.42948259739547456
36	0xbfb2dd974f64ce1b	-0.07369371116947614
37	0xbfbb19637d08a5bb	-0.10585614969809047
38	0xbfbb57e84c52bbaa	-0.10681011069639959
39	0xbf9eeb141b42253e	-0.030193628467292337
40	0xbfca847d17924f3a	-0.20716823245003885
41	0xbf98a3a4cb049b35	-0.024061751261935178
42	0xbfa4c8c5d56f30ba	-0.04059427481078744
43	0xbfc11bc1cc3a99d2	-0.13365957710375526
44	0x3fdfe2db23684956	0.4982211919570053
45	0x3fe3a7c72721cdd0	0.6142307056710994
46	0xbfeaedc65ee5f280	-0.8415252545815548
47	0xbfece54ce425d8ff	-0.9029907661449953
48	0xbfc6905779c62d9f	-0.17627995916369074
49	0xbf7fd143073b5d33	-0.007767927006816766
50	0xbfca3e9784ceb865	-0.2050351522897841
51	0xbfbe29711490135e	-0.11781985046407104
52	0xbfc671f01d755c83	-0.17535211027527361
53	0xbfb92b3d2565cdf5	-0.09831602252034329
54	0x3fb9cbcfb814aaab	0.10076616520079067
55	0x3fbe9c3b32418d33	0.11957139946894273
56	0xbfcdda954d2160f9	-0.23323313013202787
57	0xbfc127280bed37df	-0.13400745947222867
58	0x3fb780766bf58fa9	0.09180393348429895
59	0x3fd1cef5e83bcf5e	0.2782568710238048
60	0x3fc811e5541cc122	0.18804613692328426
61	0xbfb8eccb8f4cfb37	-0.09736320732643554
62	0x3f7931796a86b115	0.006150697976789373
63	0x3fb472675b72961b	0.07987066252334112
64	0xbfb50f2e7e8635cc	-0.08226290310832168
65	0xbfb859c8db992dd9	-0.09512000428474411
66	0xbf9ceb42379b40a9	-0.02824119057078237
67	0x3fca3d1744a9837f	0.20498934605259575
68	0x3f9cb38bb5d1ef7d	0.02802866265527325
69	0xbfb2ddc2d11a793b	-0.07369630436958101
70	0xbfc722d7cd79b8d8	-0.18075082333547843
71	0x3f97532d4370c641	0.022778231850855816
72	0xbfa77b0bcda9d9a9	-0.045860642295269934
73	0x3fc36c96fe804306	0.15175139834220647
74	0x3fc800798d3e386a	0.18751449009545534
75	0x3fb59b2de81ae012	0.08439909855485464
76	0x3fb9a66080bc308e	0.10019496100375333
77	0x3f64ca1b557fc3b8	0.002537778269463744
78	0xbfd15c2f855c175c	-0.2712515642491462
79	0xbf90e83969e22918	-0.016510865295040394
80	0x3f7f4d2e290c98f2	0.007641964258061617
81	0x3fb10be95c997da8	0.06658800612193849
82	0x3fa964959d4f3149	0.04959552331237888
83	0x3fa7b96708f5ce9c	0.04633638367058987
84	0xbfaadde402b0ffa5	-0.05247414143423094
85	0x3f9c7fd8c485b1d7	0.027831446642652437
86	0x3fb4c13d7780730e	0.08107360999606447
87	0xbfb243fa6c11d5a7	-0.07134976519031132
88	0x3fbaddaefe97844f	0.10494512286779066
89	0x3fb9957548b2af9f	0.09993680024007155
90	0xbfc46ba934c6af7b	-0.1595355518051028
91	0x3fc7a00b63092316	0.1845716699192727
92	0xbfc290ec5bfafd0a	-0.14504770747405643
93	0x3fc3d9494d4a0332	0.15506855272180925
94	0x3fc814c07950d050	0.18813329623810882
95	0xbf949418497cf676	-0.020096187100753636
96	0x3fb644e33459dad2	0.08698864009952992
97	0x3fad1e02382b53ef	0.05686957297954353
98	0x3fccb5f0c218ac97	0.224302382253289
99	0x3faf00b62cff690c	0.060552304261095896
100	0xbf50f5b22745ea08	-0.0010351409701728782
101	0xbfbc1a07d96989f1	-0.10977219636837511
102	0x3fc8cb791f79edf6	0.19370950734069908
103	0x3fbf6a4c1b835242	0.12271571799949135
104	0x3fb3012ff66f9de9	0.0742368675852202
105	0x3fb7ef6d4433667b	0.0934971133714501
106	0xbfb7a45138ad8ad5	-0.09235103257882867
107	0x3f930c0f3c94643d	0.018600690910805396
108	0xbfc5795aa703ae3b	-0.1677659335613145
109	0xbfc2c3effebd667a	-0.14660453737706175
110	0x3f8e059390f6d972	0.014659073697526923
111	0x3f93132f7d2ef458	0.01862787438925681
112	0x3fae107b07da68d9	0.05871948691238211
113	0x3f5b06e6913da019	0.0016495944627994473
114	0xbfa8ba94781627a8	-0.048298492106439384
115	0x3fcf83b394b333de	0.24620671044104275
116	0xbfc114c15408a0de	-0.13344589808662638
117	0x3fce440e24ace963	0.23645188132088454
118	0xbfb7df5fcd25b237	-0.09325217016675756
119	0x3fdc910b26d1ee35	0.44635275641460065
120	0x3fc8a592076ea471	0.19255280840778569
121	0xbfb97ec35df396e1	-0.0995905022023993
122	0xbfacc0230d039b71	-0.056153388346323115
123	0x3f9950eb4e50049c	0.024722744612522093
124	0xbfc364a959356516	-0.15150944572341335
125	0x3fac4221706f0c78	0.05519203660471644
126	0xbfc5e1858f41cdf3	-0.170944876622897
127	0x3fb4e3fb195bc64d	0.08160371178726074
128	0x3fccbee45529bca2	0.22457555921889588
129	0xbfc9c38cb17ad006	-0.20128019968035477
130	0xbfb8d3ea23daed96	-0.09698356032725139
131	0x3fb8206c5dd9d1a0	0.09424474040299069
132	0xbfb4526fca6bc038	-0.07938288394848392
133	0xbfb4abf44ead1000	-0.08074881478120233
134	0xbfc09096460a6564	-0.12941244525863305
135	0x3fb347669d4680b8	0.07530824031573757
136	0x3fc367798b582cde	0.15159529975821945
137	0xbf85d73348852888	-0.010664368296279272
138	0x3fb538cee9126b54	0.08289807501061591
139	0xbf8b64b629b7e952	-0.013375685833115245
140	0xbfbe0140e5652189	-0.11720662689652363
141	0x3f9b388a429b3167	0.02658287078411217
142	0x3f9c531add8d1404	0.027660770199208443
143	0xbfb714a402fc3cd5	-0.09015870163806324
144	0xbfb7a6dbde0b9199	-0.09238981410050541
145	0x3f9a33c5b9202330	0.025588120865026542
146	0xbf93f84919006f89	-0.019501821661932737
147	0x3f9d03832e00b756	0.028333711321628506
148	0xbfb28d95f1122468	-0.0724729264785694
149	0xbfb39705acc27cc5	-0.07652316539541733
150	0xbf9212ed069b4e36	-0.017650321510542542
151	0x3fbe87594bbd5e6c	0.11925275897135074
152	0x3f3d7d4b9aa049e0	0.00044997306633934135
153	0x3f9d463f05532aa6	0.02858828039169716
154	0xbfc1d2e91f0e4be1	-0.13924898163222024
155	0xbfb151a3b7ac88f1	-0.06765197023608828
156	0x3fc6a227b99bb308	0.17682358324909608
157	0xbfc2e7fcf8bf88c1	-0.14770471712023972
158	0xbfb04420f903015c	-0.0635395629824464
159	0xbfb4fbfe157a2bd1	-0.08197010063501799
160	0x3fae614e1328320c	0.0593361280808474
161	0xbfc986e8ae0be9b7	-0.1994295930706593
162	0x3fac20cda072b630	0.0549377687797058
163	0xbf98424f86f66f40	-0.02369045506712486
164	0xbf83537c6bf22a73	-0.009436580700158381
165	0x3f988aaa2d02b3b1	0.02396646404001829
166	0xbf8af6e8f480ebd9	-0.013166255914361645
167	0xbfa542880220e026	-0.04152321840268795
168	0xbfcc495662f8f0bc	-0.22098808128965242
169	0xbfc3914d6da584ea	-0.1528717790015784
170	0xbfb772aa97494f5e	-0.09159341996683909
171	0xbfc0966658a67e87	-0.12958983734732873
172	0x3fb8480cea1f5959	0.09484940257911968
173	0x3fb09d4f7b29f2e9	0.0649003673260712
174	0x3fb7a02d99624de5	0.09228787417151059
175	0x3fa160aa1a68869e	0.03394061634413713
176	0xbfca0d045ecfd9fd	-0.20352224950302392
177	0xbfc01daefa10f4cd	-0.1259058686281719
178	0xbfc5a7f6d0ce5c06	-0.16918835826501794
179	0x3fa0fabdd9007c3a	0.03316300653408928
180	0x3f783622735b522d	0.005911001751617334
181	0xbfc69b488cf4c303	-0.17661387331602194
182	0xbfdac5b077601dcd	-0.4183159986282277
183	0x3fb19fe134646b5e	0.06884582070453635
184	0x3fc2b0dc1c57bac1	0.14602233299179626
185	0x3fc48a7f40ee5402	0.16047659559686173
186	0xbfe736b2b066006a	-0.7254270024568659
187	0xbf35df5dfb7aa969	-0.00033374828806622417
188	0x3fece761024a76e1	0.9032444996589356
189	0xbfa529e66cbfc89a	-0.04133529736999826
190	0xbfc107a2b3c3baee	-0.1330455186611838
191	0x3fba1fdf8f8a185b	0.10204884771710125
192	0xbfbf9da8d9194fce	-0.12349944401040533
193	0x3fbc6a3324a6c15a	0.11099548001107476
194	0x3fc89e0b8df1f16c	0.19232315474426842
195	0xbfa3b6decd198e47	-0.03850456479701996
196	0x3fc9ca71057c10af	0.2014905239849489
197	0x3fd05a3a0917a3fd	0.255507000807995
198	0x3fc538477f849c01	0.16578000761475667
199	0x3fa9d47b4160a580	0.05044922993722434
200	0xbfc8c73f2bcfcb36	-0.19358052863352676
201	0x3fb927b103bbbe80	0.09826189366480698
202	0x3fa0f4b09c6246ee	0.033116835679846676
203	0x3fa24a0c59dd1274	0.03572119328467674
204	0xbfcd97514293f164	-0.2311803412520802
205	0x3fa0f34519631a70	0.0331060021867885
206	0x3fb70d6d6fb0588b	0.0900486371686801
207	0xbfcf1449b8e90075	-0.24280663994614185
208	0xbfbf7e8c5d4c7224	-0.12302472379492052
209	0x3f801d5d15486459	0.007868506633757532
210	0x3fc481f2289f8597	0.1602156351428163
211	0xbfc12712441f08d1	-0.13400486303550577
212	0xbfd9e414d4ea24f3	-0.40454598228877997
213	0x3fc4617c1f2e60ae	0.15922500154988967
214	0x3fe33c1d4809fbe6	0.6010881812106816
215	0x3fbd7b1b45965154	0.11515970658212399
216	0x3fbb94efbb4d905f	0.10774133990122568
217	0xbf99b1742960f463	-0.02509099485927314
218	0x3f9d26a489e184f4	0.02846772281225625
219	0x3fbfa5f351958129	0.12362595311924864
220	0xbf8bab9d649c95fb	-0.013510923035549452
221	0xbfbf65c8df19a887	-0.12264686056883721
222	0x3fc05ec2ca855207	0.12789187325201132
223	0xbf9f3dcce3468fc8	-0.030509187099269558
224	0xbfae2ba2e9adde54	-0.05892666914490677
225	0xbfd0d1377458f4da	-0.2627695690351409
226	0xbfe2fde97a53de65	-0.5934951199732948
227	0x3fcc570c8065f38c	0.22140651959844282
228	0xbfbdcc89755addc7	-0.11640223612891197
229	0xbfc977a28af8a0b7	-0.1989634684152912
230	0xbfb3796957c65a38	-0.07607134240093039
231	0xbfc0ac2d12341fa5	-0.13025439633224525
232	0x3fc2ad2fd2d5480e	0.14591024202906094
233	0x3fc52c4c3b00cc9a	0.1654143608189756
234	0xbfb7abf08a7c0115	-0.0924673402878436
235	0xbf7225b80cfd00b6	-0.004430502842126474
236	0x3fd2929cb26d89d3	0.2901984922847564
237	0x3fc14bb5a03a979a	0.13512296985316824
238	0xbfcfb251865162e5	-0.24762934740535694
239	0x3f9496d9e441f7ab	0.020106701428168765
240	0xbfae7a8327785dc3	-0.059528444831979076
241	0x3fc363ffccc79625	0.1514892339611588
242	0xbfbd22b41aabda59	-0.11381078387408063
243	0xbfaf51977118f10b	-0.06116936927398527
244	0xbfbdb30a7e8bdbf5	-0.11601319875249756
245	0xbf473e22b1972e0d	-0.000709311428346239
246	0x3f7d816b9f57edfc	0.007203503036631084
247	0x3fa54996ed17761a	0.04157706875023966
248	0xbfba460a73f1244b	-0.10263123827566394
249	0x3fbac3cb8d6116dd	0.10455009652749987
250	0x3fcb16f9fabdad93	0.2116386865921923
251	0x3fadc2c5a52432ce	0.05812661782156213
252	0x3fc5c40b9411a2fe	0.17004532556463653
253	0xbfc447c83176510f	-0.15844061293740494
254	0xbfc228c703c38538	-0.14186942752625398
255	0x3fb01f833e8adecc	0.06298084523120479

lstm.weight_hh_l0 f8 [256, 64]
0	0x3fbe641237546c61	0.11871446467232395
1	0xbf8820db767f009a	-0.011781420282091216
2	0x3fca50f3519d4082	0.2055954121119648
3	0xbfb6a836e87fb606	-0.0885042493461797
4	0xbfb541c1788ae560	-0.08303460305150656
5	0xbfddf26cf02820fd	-0.4679214806824488
6	0xbfbbd794aa8d8979	-0.10875825084580083
7	0xbfa4256c1054bf40	-0.039348008149657776
8	0x3fb0d8b7feab1f54	0.06580686538211228
9	0xbfb96a5d6efed181	-0.09927925071571587
10	0xbf9c760af30e4fef	-0.027794047436671517
11	0x3fd09c38b75ccfdb	0.2595350065851087
12	0xbfb084673311e526	-0.0645203113253002
13	0xbfbd6291320f5752	-0.11478526565710226
14	0xbfd7384144cb8bc7	-0.36280853002807273
15	0xbfa4df7b20d962ec	-0.04076752449026863
16	0x3fb9bf18050e797a	0.10057211039972982
17	0x3facfe09d03d3e9f	0.056625658674076755
18	0x3fc35426f79558d5	0.1510056218055015
19	0xbfbfff5bbe931b27	-0.12499020960522654
20	0x3fb8afd7fd772d47	0.09643316209910778
21	0x3f916f820e4b49f2	0.01702693187946553
22	0xbf850088aaded9c7	-0.01025492450194755
23	0xbf8d729b09b15ee3	-0.01437874911623233
24	0xbf95bbcfd52edbf2	-0.021224257837925316
25	0xbfac405b3f5a578c	-0.05517850063658533
26	0xbfcce5ededcc7539	-0.22576688872588038
27	0x3fbd9aeb1797c2ec	0.11564511610027822
28	0x3fa8a2ff713548a8	0.0481185746854334
29	0xbfaa2edd073c3807	-0.0511387893039768
30	0xbfd151a75efb624e	-0.27060875201781165
31	0xbfc2c88e8b2aefe1	-0.14674550814913714
32	0x3fb4caadfafc4363	0.08121764543126413
33	0x3f78942faf1ad3b0	0.006000696435582251
34	0xbf4a54b4d18090d6	-0.0008035548116862811
35	0xbfbacac77434c1dc	-0.10465666377127242
36	0x3f81796cc0326236	0.008532380690938184
37	0x3f55b0602c112b6c	0.0013237895184541005
38	0x3f90bb18ba8646aa	0.016338716873696292
39	0x3fd079e28681b240	0.2574392617741843
40	0xbf84972d106cca12	-0.010053970397710752
41	0xbfacad998abd1e03	-0.05601196116054654
42	0xbf9a5dc656ef027f	-0.02574834733582287
43	0x3f5c060f634a185a	0.0017104292175260855
44	0x3faf32798cb86c03	0.06093196718958185
45	0x3f95daf9c5884bfc	0.021343138390943026
46	0xbfc457d559be0e46	-0.1589304626651133
47	0xbfb831038e68ec0a	-0.09449789263537425
48	0xbfce0f00542ce1aa	-0.2348328028690621
49	0xbfaec3b38f00de14	-0.06008683319708666
50	0x3fbc21a65fb03118	0.10988845668925185
51	0xbfc7f0956c32e09a	-0.18702953131810746
52	0x3fa555ec89542646	0.0416711728704056
53	0xbfb372fa1308aa72	-0.07597315754598258
54	0x3fd05e5096440a34	0.25575651811974187
55	0x3f99e7f453876a14	0.025298898313716192
56	0xbfb9dcc8053fa6d6	-0.10102510574474918
57	0xbf9aa619246a151b	-0.026024239394719744
58	0xbf715d0c61bf28a4	-0.004239128462311257
59	0xbfb96bb71d24174e	-0.09929985486459467
60	0x3fac8f10377a575b	0.055778986713604005
61	0xbf9336249dddac76	-0.01876122678315225
62	0x3f919fb5958df99f	0.017210805180633334
63	0xbfc0fb411d5189aa	-0.13266767436568944
64	0x3f9e5482e76c1d1a	0.029619260191819576
65	0x3fa6f01be937dc7e	0.04480063650037723
66	0x3fd095922164c8aa	0.2591290784940933
67	0xbfa7b7ae341ced1d	-0.04632324587006507
68	0x3fad84f7818d1b92	0.05765508133349963
69	0x3f968be4d85cd19d	0.02201802797863338
70	0xbfb58afa5a273fa4	-0.08415188504227317
71	0xbfba73ff17365371	-0.10333246533111919
72	0x3fa1d740f372f67c	0.03484538051405381
73	0x3f8fd4b18993f0b6	0.01554239941696554
74	0xbfafb47c9cd45521	-0.06192387976094894
75	0x3f96e905e40415ef	0.022373287240972258
76	0xbfa999e355aabe70	-0.05000219746341095
77	0xbfb653d0cae751cd	-0.08721642450047469
78	0xbfc5944dafdd8fb5	-0.16858836257153845
79	0xbfbe4c5c23c0bc9e	-0.11835265992043495
80	0x3fc6647573112b24	0.17494075888165483
81	0x3fb4ec7b5c3a03d1	0.08173342706324084
82	0x3f7c2c82a3512ef6	0.006878385834237602
83	0xbfd3ef6b73fea55d	-0.3114880211602065
84	0xbfb68bcabec51aed	-0.08807055623502054
85	0xbfa7a8e084ed8f06	-0.04621030447631651
86	0xbfb4640830ed6e7e	-0.07965136713522189
87	0xbfb84a7af868cfff	-0.09488647999461362
88	0x3fb3beecdb5dd44c	0.07713203769329019
89	0x3fa8e1680ca05e1f	0.0485947146809702
90	0x3fd2ab2a8800cc3e	0.29169715196184487
91	0x3fa6ec4404b33f1a	0.04477131421447052
92	0x3fc3bff580d5b0b3	0.15429562369115998
93	0x3fc9f85a24e70b13	0.20289160539513115
94	0x3fb0957868eaa36a	0.06478073655547481
95	0x3fb1afd5f0628c05	0.06908928984425707
96	0xbfb3f36c5d8f5fb1	-0.07793309482747081
97	0x3fc3162b01086264	0.149114013199113
98	0xbfaa7eb82d8b7e51	-0.05174804264038058
99	0x3fb9d3f6fa408bfb	0.10089057550116813
100	0x3fb9d5ac94237403	0.1009166585603936
101	0x3f8a4134fb52b8de	0.012819684905789715
102	0xbfbd5976cf41ba9d	-0.11464636383036937
103	0xbfc07175282fe9fe	-0.12846245252860905
104	0x3f8ce79a5ccdb2ec	0.014113622624529275
105	0xbfb336ba0ee9c9a3	-0.07505381454556086
106	0x3f9190e7356e72f6	0.017154324184605017
107	0xbfd04d7980f02da4	-0.25472867576237435
108	0x3fbb5f1f0dca680a	0.10692018591581146
109	0x3fbc1added01a3d9	0.1097849563244745
110	0xbfc536e285974b9f	-0.1657374527263444
111	0xbfbe433b8cf69589	-0.11821338836178631
112	0xbf6787d43f356929	-0.0028723855445324143
113	0xbf919b124e5a56c0	-0.017193113357811596
114	0xbfabfc9f89e09229	-0.05466173704215677
115	0xbf8d25b380f782d0	-0.014232065556769952
116	0x3fc19234b4f24b0c	0.13727434954906703
117	0xbf8aa7205081449a	-0.013014080483261293
118	0x3fa805a646c0c3c9	0.04691810239490441
119	0xbfa15f2d8ac678d4	-0.03392927474054522
120	0xbfbd9255a3a1c4ed	-0.11551413769645409
121	0x3fc60c5744410a2b	0.17225161392896501
122	0x3f94182d0071b6f8	0.019623473312484457
123	0xbfbfebab6cb86f3f	-0.12468978313739586
124	0xbfc61623d98a1d8a	-0.17255066034361405
125	0xbfb97f0fdcc6a5b6	-0.09959506168401941
126	0x3fb53511e842a0f8	0.08284103317658154
127	0x3fc10d32913841d3	0.13321525660332031
128	0x3fb0f6bf1e62d9f6	0.06626505367135124
129	0xbfd268a4bec3cd2c	-0.28763693456058337
130	0x3fbdb5f260a10cf4	0.1160575376425646
131	0xbfc82c1b9a6e2a51	-0.18884606400054563
132	0xbfa45ae7facbd51e	-0.0397560590408068
133	0xbfc287b817179f7f	-0.144766818309332
134	0x3fb0215df3710f70	0.06300913995170077
135	0x3fd0515c33a9d58b	0.2549658302808317
136	0xbfa36722874f475c	-0.03789623166780018
137	0xbfb536b27cc9538d	-0.0828658632902501
138	0x3fb4f2a80da0e096	0.08182764370656267
139	0xbfc8d751fbd4ac4d	-0.19407105251716175
140	0xbfb9530db436e2e0	-0.09892354631200417
141	0x3fd1e75cad430b55	0.27974621696573837
142	0xbfd98dc776550b8e	-0.3992785125339474
143	0xbfb7c3797f880d74	-0.09282645572243614
144	0xbf8fdc29499a36a0	-0.015556643065134879
145	0xbfd26e08f55e4649	-0.2879660030531324
146	0x3fc0e863a9d204ee	0.13209195892344588
147	0x3fbff2ad423bee18	0.12479670397799969
148	0x3f9e1ebea920adc1	0.029414156983120558
149	0x3fc5789a2fc5224f	0.167742989850256
150	0x3fb37b963efd6785	0.07610453641737365
151	0x3faa749aefcf1397	0.05167087724070212
152	0x3fb87c1695e8a705	0.0956434360492971
153	0xbfb572fce5833e83	-0.08378582576119169
154	0xbfd8ee6f06b3f159	-0.3895528378923437
155	0xbf828f8d0cd0dcfd	-0.00906286425934732
156	0xbfd2e182aaa899d6	-0.29501406350973747
157	0xbfbcc1c74438dad8	-0.11233182349756576
158	0x3fd0305ab9ddd73e	0.25295131827384754
159	0x3fb19b48f8ab786e	0.0687757117370624
160	0x3fc5922c1c1e1032	0.16852332470819104
161	0x3fb5dc6f8bb39119	0.08539483223609458
162	0x3fa94bd0c4fd6866	0.04940655140554
163	0xbf994cb8700b0c2b	-0.024706727827617108
164	0xbfd002788aac4757	-0.25015080969125364
165	0x3fc095cc2f8fdc12	0.12957145998345304
166	0x3fe0ca9132c5479c	0.5247274390805958
167	0xbfc897ea8d738b54	-0.19213611513904516
168	0xbfca67891b419dcd	-0.20628465491175377
169	0x3fcc492e41851f6e	0.22098329734057692
170	0x3fb73ec5ea8644cc	0.09080159164138307
171	0x3fb076979f2c140c	0.06430957447089741
172	0xbfc7a6542edb398d	-0.18476345336825908
173	0xbf83a29537613cf2	-0.00958744597678993
174	0xbfb9aa947958d9f5	-0.10025909388136951
175	0xbfb104c3e5eca692	-0.06647896159543112
176	0x3fc31aa482359af9	0.14925056798821126
177	0x3fa0f59891ef1624	0.03312374860210479
178	0xbfd031d7b0d2e2a7	-0.25304214733072644
179	0x3fc9ee6743052d91	0.2025879933592987
180	0x3f6a16df85d6b4a7	0.003184734886153412
181	0xbfa26bc7be134d3b	-0.03597854800468744
182	0x3fb2857728dc472b	0.07234902141160819
183	0x3f89482b5d2d529b	0.012344683438336992
184	0x3fc54d9d71698595	0.16643112218575298
185	0xbfb6cd5cab60cc4f	-0.08907107528720924
186	0xbfc31da715563853	-0.1493424276527003
187	0xbfa50bd816258bd6	-0.04110598821969062
188	0x3fbbbf6b7dc7d6c6	0.1083895856935114
189	0xbfa3bfb56db85cae	-0.03857199634892915
190	0x3fb96558000fd210	0.09920263291844145
191	0xbfd52a1daa0430b7	-0.3306955490413758
192	0xbfbd49c397a5cd1f	-0.11440679981551626
193	0x3fb26faf88b01fe0	0.07201668822392504
194	0x3fb9e6028f8d056b	0.1011659241167046
195	0x3fb8424f9092dc34	0.09476182250624349
196	0x3fbde4ba6255df27	0.11677136326568115
197	0x3fa9bc7602ac4425	0.050265968157084985
198	0xbfa2ca1b7ea43b60	-0.036698207101031555
199	0x3fb972a0e64d0f74	0.0994053423174231
200	0xbfc20747bc402a50	-0.1408471745674711
201	0x3fb481db5a46d34f	0.08010645822544159
202	0xbf99e410e788dafb	-0.025284065372228586
203	0xbfabbbc3966f3d0a	-0.05416690074309301
204	0x3fa3a7a5a9507725	0.03838842098069354
205	0xbfa3546fb6c22d84	-0.037753573474300445
206	0xbfaa3ef04e7ce0e1	-0.051261434155493786
207	0x3f837a659589c927	0.009510797143978579
208	0xbfa47fad3af5008d	-0.04003659577074457
209	0xbfac0fe7b6c40691	-0.054808846531171025
210	0xbfa77098cde64acb	-0.045780921110368654
211	0xbfbc1cdbd657d5b6	-0.10981534941659885
212	0xbfa425e05f14e1a6	-0.039351474386822446
213	0xbfc678591889d5e0	-0.17554773042836214
214	0xbf5272c2c6839848	-0.0011259939292869326
215	0x3faedb4c1a6a11d2	0.06026685545387846
216	0xbf625bdf0600259b	-0.0022410732199246836
217	0xbfbe600181ee2c8e	-0.11865243360641584
218	0x3fb9bea0ec405157	0.1005650116715676
219	0x3f9f561327dcae32	0.030601786907182134
220	0x3f9e3018307760d2	0.029480340917729837
221	0x3fb2f711160bd902	0.07408243931044825
222	0xbfc2eb3dd8288e41	-0.147804003282646
223	0x3fb8bc2d2b856deb	0.09662134468583587
224	0xbf857fbe0cce3c68	-0.010497555509372883
225	0x3fa5628f91173c6f	0.041767584286952146
226	0x3fb692edf9ddfef3	0.08817946768067113
227	0x3fbb5a93c6d97fec	0.10685084919668925
228	0xbfcb09ac42807349	-0.2112326931682225
229	0x3fb47546ff65608c	0.07991451010946288
230	0x3f8e2ddddaba39ff	0.01473592113259503
231	0xbfb75db6a3c965c6	-0.09127370356272654
232	0x3fc73c7dd70c8353	0.1815335559886316
233	0xbfbc32c69e380159	-0.11014977801096872
234	0x3fb1bc704ae38242	0.06928159550035054
235	0xbfc1b73634917971	-0.13840367857751404
236	0x3fa283d3bb87b9c2	0.0361620108050036
237	0xbfc05438e04191d0	-0.12757025671011357
238	0xbfa16fbd2c51b577	-0.03405562559133107
239	0xbfb420f862fe69e9	-0.0786280862506953
240	0x3fb4203c5f95a762	0.07861687978370704
241	0x3fae8c4f8b3181c3	0.059664235822086485
242	0xbfb2366002935f49	-0.07114219725496897
243	0xbf8a88df9891dc47	-0.012956377833900258
244	0xbf930daf54cbff43	-0.01860689120348914
245	0xbfc113f732179a30	-0.13342180200489073
246	0xbfae7563d3b2ad8f	-0.05948936423495887
247	0x3f96fb53a87f343d	0.02244311061786085
248	0x3fa76c5ea55ebe56	0.0457486702792919
249	0x3fbc89dc43923f46	0.11147858285607723
250	0x3fb46838b7270c4d	0.0797152945661292
251	0xbfbb60ed9dc67e92	-0.10694775678575244
252	0xbfc38605398cdc8a	-0.15252747831411667
253	0x3fc2617c91c3a9c9	0.1436000549068253
254	0xbfb5bdb6354e331e	-0.08492602158930793
255	0xbfb017de0180686c	-0.06286418472919458

lstm.bias_ih_l0 f8 [256]
0	0xbfba165122e78250	-0.10190302946239993
1	0x3fb266bdf399cf34	0.07188021847997278
2	0xbfa071ba97ff95b8	-0.032117682508935486
3	0xbfb833c9cb3b35f7	-0.09454022609425992
4	0xbfc4dcac6f83d607	-0.162984423113514
5	0x3fd10f5f538701fc	0.2665632548996937
6	0x3f6a3bc126f88eca	0.003202321291398612
7	0xbfc25b8b24f5b706	-0.14341868691138177
8	0x3fabbfd0e1583984	0.05419781447209274
9	0x3fdba7b54ebc1d47	0.4321110981840843
10	0xbfc153222017f24f	-0.13534952704493938
11	0xbfca29ff9202ca1a	-0.2044066870635824
12	0xbf9b7d78307f7ee0	-0.026845815620503255
13	0xbfb4fba29d091860	-0.08196464856982422
14	0xbfca2866805a6a24	-0.20435792224164218
15	0xbf5c9dd6c0343756	-0.0017466160941838802
16	0xbfb40868a20b2056	-0.07825330692424023
17	0xbfaa17aff8bef6da	-0.0509619704384769
18	0xbfd310fbca104f1a	-0.2979115937498463
19	0xbfd86dd81756a7d6	-0.3817043521800064
20	0x3fa5161bfa84de9c	0.04118430550664451
21	0xbfa9a9b99291532a	-0.050123023168146055
22	0xbfb359debf07c4fe	-0.0755900589354219
23	0x3fb2486fd5ec171f	0.07141779873572006
24	0x3fda7d5fb49fda2b	0.41390221251586706
25	0x3f9e43e22df15ebf	0.029555830053452633
26	0xbfcefa270f62b0c6	-0.2420090508579788
27	0xbfac8e2e8eb94f7b	-0.05577226154551248
28	0x3f962fefb154fe8f	0.02166723747109117
29	0x3fba58d3598a9feb	0.1029178708655533
30	0xbfcd48b4a583ab88	-0.22878130037073796
31	0xbfa0a019f9ff47cb	-0.03247147728656293
32	0x3fd5993532d34786	0.33747606242570105
33	0xbfbbfad2268b2304	-0.10929597321513645
34	0xbfb9d6acc679ce9a	-0.10093192906952667
35	0xbfb782f652905705	-0.09184207454412892
36	0xbfa3c7b2bac4dc11	-0.03863295106787502
37	0xbf71e9ac45ac7a83	-0.004373238504540414
38	0x3fd7c9cbd7de3e54	0.3716916664206782
39	0x3fdf60ae826632f5	0.49027598127649635
40	0xbfb551bc8128fdf8	-0.08327844765971537
41	0xbfc8dc408ac27e9f	-0.19422156119707254
42	0xbfb6f95b2df2b51e	-0.0897423731973572
43	0xbfd55b1e65e2a6dc	-0.3336864466642575
44	0x3fab5060524f8fdd	0.0533475971676862
45	0x3fb15b0bf058b940	0.06779551141582818
46	0xbf93a478d5216742	-0.01918209839673258
47	0x3fc18730aa9c6095	0.13693817453964088
48	0xbfa8990e14f95476	-0.04804271703748324
49	0x3fa45034c86dd53b	0.03967442461627476
50	0xbfcdca972d38450b	-0.23274507244108408
51	0xbfc560d2d1d51232	-0.16701731916158874
52	0xbfc5127d0fa51703	-0.16462672485265992
53	0x3fc44bcff42981d2	0.1585636083791671
54	0xbfaabbe1014b68b4	-0.052214652450588345
55	0xbfb5b3dd26e1231e	-0.08477575492100839
56	0xbfaf51470b1596d9	-0.06116697321230697
57	0x3fe00ae6a70d45b1	0.5013306868296948
58	0xbfccb85e312077d6	-0.22437646292468
59	0xbfd14b37ca2c01f9	-0.27021593802785976
60	0xbfd77b22c53f22e2	-0.36689061415067503
61	0xbfcb54be03803d19	-0.21352362795776328
62	0x3fd7672ef5eb4932	0.36567281737838464
63	0xbfb8f2f97d971adf	-0.0974574977509337
64	0x3fc5e78739338a23	0.1711281804374077
65	0xbfa9a1b8b46fb5b9	-0.050061962152408275
66	0xbfaf5433bb8a1f4f	-0.061189285891542704
67	0x3fcb43d636397d23	0.21300771377261993
68	0x3f8600921c8befc2	0.010743276115583348
69	0xbfdee6d4108b19e9	-0.482838646083478
70	0x3faec5b5e08ec738	0.06010216108496852
71	0x3fa5be69e3379c8b	0.04246836565635544
72	0x3fb5adeb2453c3b6	0.08468503605742125
73	0xbf74114bf89b5ff2	-0.004899307977858302
74	0xbf6bde3babfa51c0	-0.003401867433988154
75	0xbf9cf9bce5e3b1e8	-0.028296424418771254
76	0x3fa07b66e9f5a164	0.03219148260069707
77	0x3f871babff1d83a5	0.011283248637200158
78	0x3f99077cf8e8f2fe	0.024442627613313832
79	0xbfc071fa3f26d3a1	-0.1284783180577991
80	0xbfbe246884f6cc1c	-0.11774304624741244
81	0xbfa44ed9fc3190f8	-0.03966408923659687
82	0xbfae5d84e69545e8	-0.05930724444136698
83	0xbfd352b6140400a7	-0.30192329363490916
84	0xbfa8a633d1cb8c1a	-0.04814302383399412
85	0xbfba54beaa42cee2	-0.10285560280572839
86	0xbfc234c3bcb52b9a	-0.1422352477478313
87	0xbfaf8bdaa42951fa	-0.06161387685702731
88	0xbfb9fa1c2357e586	-0.10147262442469271
89	0xbf7f96d66079ed7e	-0.007712209138499458
90	0x3fb1d838b1cad704	0.06970552769311317
91	0x3f9d87adfc6aff0d	0.0288378892244046
92	0x3fb8334db173fca9	0.09453282911634865
93	0xbfbfcf188221e390	-0.12425378014621757
94	0xbfb67a704952abbc	-0.08780576505766552
95	0x3f755c323ecdf128	0.0052148783405494906
96	0xbfbc0f900b0ddd82	-0.10961246747853262
97	0x3fa3533f5c500d4d	0.0377445030390172
98	0xbfc0c017b8bd60fe	-0.1308622028398147
99	0x3fbee1e4d1e76f20	0.12063436627016388
100	0x3fc3d02bfba44f00	0.1547903994293094
101	0x3fc444cb2505d5e7	0.15834941203836125
102	0xbfd8aaa0528356f0	-0.38541420038141805
103	0xbfdbc3eaf3eea313	-0.4338328725958018
104	0xbfab89c6bd5ab5e8	-0.05378552495436023
105	0xbfa239783bb9245e	-0.03559470871966462
106	0xbfbea6bbeedfb567	-0.11973166067010298
107	0xbfb391de180ad4f0	-0.07644451224298954
108	0xbf589955430ee562	-0.0015014011989776467
109	0xbf9f0dc756c3ed61	-0.03032599894593824
110	0xbfa29da8e58f0057	-0.036359098455705556
111	0xbfbfba28ee063cc0	-0.123934324370782
112	0x3fb00c2962a6dece	0.06268557222835655
113	0xbfa3394c87a2b655	-0.03754653125484412
114	0xbfb040ecb70fcb30	-0.06349067181853907
115	0x3fa7c39b371651c7	0.04641423270655625
116	0x3faf764b25b577ac	0.061449383118755335
117	0xbfc657f81ec13ec7	-0.17455960752203323
118	0xbf611a06aa8ca822	-0.002087605495394677
119	0x3fbf27078f7aebea	0.12168929341252946
120	0xbfa669be9910dbb6	-0.043775516686245394
121	0xbfa07e7ff3fdfb68	-0.03221511701030161
122	0xbfc3286a18ef9627	-0.14967085092136864
123	0xbfc1901cf8acf959	-0.13721048490874457
124	0xbfcec8d0e325bfb4	-0.24050341693100352
125	0x3fb30f58c2ddef81	0.07445292241567182
126	0xbfb38c485718d6ce	-0.07635929228203084
127	0xbf81018a436062e1	-0.008303718739669676
128	0x3fa5db0dd6dea7cf	0.04268687484666566
129	0xbfae71eeb6a5373f	-0.059462985797479544
130	0xbfad7e2bac1ceafa	-0.05760323024738585
131	0xbfb904d9e861a45c	-0.0977302734696805
132	0xbf91f302af74f811	-0.017528573950805596
133	0x3f9d4a2799b98c68	0.028603190190903766
134	0xbfbd1206efe15ec0	-0.11355632168249041
135	0x3fa8834fdd45bd2a	0.04787683082656209
136	0x3f94b8b4ee397e39	0.020235850372385598
137	0x3fbd9219574999b9	0.11551054364244963
138	0xbfa526d7cab0f69e	-0.04131197308786948
139	0xbfb01f5e9fad99b0	-0.06297866247550732
140	0x3fa7c2e94ee6ac83	0.04640893066547227
141	0xbf9aed580b6cb972	-0.02629602021914352
142	0x3fa66109942b43a5	0.04370908673957467
143	0x3f9cb15324449656	0.028020190323465442
144	0xbfb881c273a14a96	-0.09572997401236658
145	0xbf978fc11468ee75	-0.02300931632110666
146	0xbfc0f08e64373120	-0.1323411931356384
147	0xbfb21726e53e82e0	-0.07066577050001
148	0xbf8d5fb1d7339274	-0.014342679386069458
149	0x3fb01f9fabacba50	0.06298253957059186
150	0x3fa0747b635b1b5c	0.032138687017826156
151	0xbf80582679ee933a	-0.007980633350436517
152	0x3fa9682d176bd5e0	0.04962292586234773
153	0x3fb93ae8e293df19	0.09855514079742668
154	0x3fb19db012f598c4	0.06881237471461349
155	0x3f862d3c027ebdb2	0.010828465295928822
156	0xbfb2d5253eefa36f	-0.07356484209561896
157	0xbf947b667f927eb1	-0.020001985107795665
158	0xbfb7a2a660dd7fbb	-0.09232559075235162
159	0xbf1e5bb6d97284d4	-0.00011580756687347714
160	0x3fb8913f4a6e1b68	0.09596629683629276
161	0x3f5983a5fb002375	0.001557266321471765
162	0x3fa5568d6aa1362d	0.04167596747047884
163	0x3f8f99924ce13734	0.015429633113082632
164	0xbfb2c69f9e410fd8	-0.07334325421930943
165	0x3fbbc2aa7c47c501	0.10843911680401065
166	0x3fb572bc4fb667cc	0.08378197618586042
167	0x3fa19f7be4bf2270	0.03441989104573373
168	0xbfba80bbcd21bd46	-0.1035268188295407
169	0x3fa000d3460baa5a	0.03125629644440116
170	0x3f86860debda97f7	0.010997875938596009
171	0x3f8fc2c82846ebe5	0.015508235673101065
172	0xbfa4d4361b963203	-0.040681544177548566
173	0x3f745386dbbc6282	0.0049624698547395835
174	0x3fb0cf033f7794b5	0.06565876292696056
175	0x3fa09468dd9a307e	0.032382275630056676
176	0xbf6599828f814770	-0.0026366758357107486
177	0xbfa63aa26ef7d614	-0.04341609577742758
178	0xbfa8cea0607b502a	-0.04845143487696675
179	0x3fb558d7b09dd763	0.08338687955787587
180	0x3f9cda4159f98466	0.02817632781659931
181	0x3f9321093711f022	0.018680709825716353
182	0x3f926cfefc7729c3	0.017993911895055847
183	0x3fb445de45c97c28	0.07919110492501658
184	0xbf78c694ad2facd6	-0.006048756377803962
185	0x3fc40ef3a949b938	0.15670629278197068
186	0xbfb12147ca0f2a0e	-0.0669140690144234
187	0x3f9eb321d6c4bd8d	0.029980210050039303
188	0xbfa9d635339bdc10	-0.05046240096083221
189	0x3faefd9a2ecbeaa6	0.06052858182188929
190	0xbfa554e7b12daabb	-0.04166339910337543
191	0x3fb37ec7cf40c3cd	0.07615326700103182
192	0x3f920477ffe35a4d	0.01759517192189213
193	0x3fb379701c1a5b91	0.07607174574000754
194	0x3f9eea1637166e64	0.030189845192224132
195	0x3fb3abbcb3acd9f5	0.07683925043679792
196	0x3fb0462869990f65	0.06357052400659098
197	0x3fd6c93a85d8275c	0.35603201933610307
198	0x3f987987e00f45e5	0.023901103067890523
199	0xbfad8b0ed9a86588	-0.057701553411059925
200	0x3fc2097a6a4843b2	0.1409142512279949
201	0xbfb2588266ee2563	-0.07166304600663902
202	0xbfaf4ce3c0f75296	-0.061133496575768095
203	0xbfdbdbb8122ec5ad	-0.4352855851712672
204	0x3fbb050e47a683bc	0.10554589509275919
205	0xbf9304bbc867134d	-0.018572744471174563
206	0x3f7794f9dc25f0ec	0.005757308974690494
207	0xbfc3a5ccf1e00ee3	-0.153497331717623
208	0xbfa4265c7a0c901c	-0.03935517301422939
209	0x3fb24d4354c757d5	0.071491440008088
210	0xbfd722d1518b25cf	-0.3615001007388771
211	0xbfd30f6253418a21	-0.2978139699027072
212	0x3fa2263fd279ced8	0.035448069041107366
213	0xbfb06b11dd5b28e0	-0.06413375524713016
214	0xbfc147232ddff5c9	-0.13498344173414825
215	0x3fb47c214943445c	0.08001907385484358
216	0x3fd7eb904a30caf2	0.37375266308951816
217	0xbfc0a73c232eab44	-0.13010360448728353
218	0x3f863d0038f68004	0.01085853742443988
219	0x3fc70a64ffd42e33	0.18000471583978736
220	0xbfb76caeaa3089ed	-0.0915021100522961
221	0x3fbef65c48453422	0.12094666256344103
222	0xbfb38c52ac5cccae	-0.07635990818089297
223	0x3f92f1771a0f5fa4	0.018499241796092428
224	0x3fc891f26709cef9	0.19195394545715042
225	0x3fbe4f1515f6654e	0.1183942011470169
226	0x3fbed503bc6a85b2	0.12043784475328925
227	0xbf8f1d06e137379b	-0.015192083118474467
228	0xbfaf5f404085e8d3	-0.061273582340577136
229	0x3fccf319c398375a	0.22616884279744448
230	0x3fe067cb99ef2e12	0.5126703268555863
231	0x3fe1319f0e5ea9f6	0.537307289186457
232	0x3f62ff004b757e39	0.0023188596493779715
233	0xbfc34a63de1d94f3	-0.15070770593153035
234	0x3fa0ae8e5be132ed	0.032581757274419455
235	0xbfccaacf60d24570	-0.22396270969015175
236	0xbfaa2b43e9f74cad	-0.05111133795767251
237	0x3fbb73c9430b511a	0.10723550688573305
238	0x3f82b4810a382bb6	0.009133346676227432
239	0x3fcb3a451f1787bc	0.21271575945053012
240	0x3f95f7212685b217	0.02145053670521876
241	0x3fae01c30cb5d515	0.05860719232706849
242	0xbfdc113f89284d56	-0.4385527457645443
243	0xbfc049aa261f78a7	-0.1272480665347235
244	0xbfc1e4a20a8e9248	-0.13978982463335599
245	0x3fd5da6c6f6e40c6	0.3414565170469469
246	0xbf9d9b18d0f2e2dc	-0.02891196036645992
247	0x3faee30054d64250	0.06032563243491451
248	0xbfbb75cd1d87bce8	-0.10726625414803304
249	0x3fdae4fd3b5fb443	0.42022639082171426
250	0xbfc6466003ae7dae	-0.1740226762749279
251	0xbfd4e160985e0f74	-0.3262559402430647
252	0xbfd016d76005d34e	-0.2513941228601667
253	0xbfc43b48f0da4b8e	-0.15805923233400815
254	0xbfd08d0abb231081	-0.25860851550192626
255	0xbf8b08b734af55ad	-0.013200217528644165

lstm.bias_hh_l0 f8 [256]
0	0xbfb5808c62e7826d	-0.08399274267822827
1	0xbfb8f75c8c663149	-0.0975244372149905
2	0xbfba33d50bffca54	-0.1023533968253017
3	0xbfa1a46596766c6e	-0.03445737325383723
4	0xbf9851667c1eb366	-0.0237480176216879
5	0x3fd39122b387026b	0.3057333710858418
6	0x3f95385e24df11d1	0.02072283840222317
7	0xbfadb0c493d6dc18	-0.057989256903447195
8	0xbfb861c04f53e2db	-0.09524156510077424
9	0x3fc9caad9d783bff	0.20149774731586942
10	0xbf94290900bf8f23	-0.019687786741896873
11	0xbfcd1a06b202ca51	-0.22735675517977197
12	0xbfc4b600660fefe2	-0.16180424674519062
13	0x3f8cad6117b73bfc	0.014002569710013894
14	0xbfcb348b205a6a37	-0.2125409992193725
15	0xbfbd974e1b00d0dd	-0.11558998259789939
16	0xbf91f2f0882c80ee	-0.017528303443328612
17	0xbfbe43b43c5f7b77	-0.11822058175992632
18	0xbfcc6904b4209ed6	-0.22195490641865118
19	0xbfd796b9d756a7d7	-0.36857458142423866
20	0xbfc731f9a15ec8c1	-0.18121261958510185
21	0xbfbbfb838948a995	-0.10930654622703735
22	0xbfc97d307f83e2e0	-0.19913297869040658
23	0x3fb914e715ec16f5	0.09797519955835894
24	0x3fd9e17dc49fda23	0.40438789559940086
25	0xbfb2ad9cb483a839	-0.07296161086165477
26	0xbfd59c8277b15834	-0.3376775902628453
27	0x3fc25ecddc51ac1b	0.14351819284215214
28	0x3f8082b162a9fe1f	0.008061776946532593
29	0x3fc04650acc54fbe	0.127145847664563
30	0xbfd2c92342c1d57e	-0.2935264732289723
31	0xbfbaf53c3cffa405	-0.1053044938013415
32	0x3fd4eee3d2d34784	0.32708068455132655
33	0xbfbb9da5a68b22ef	-0.10787425342563116
34	0x3f915e89e618c636	0.016962198895447332
35	0x3fa40c5a5adf52a1	0.039156745522324295
36	0xbfb7a8655d626db5	-0.09241326837439241
37	0x3faa5fb6774a7152	0.05151148039041921
38	0x3fd6c16947de3e72	0.35555488603947716
39	0x3fe545dbd1331920	0.6647776685647706
40	0xbfc9f87d00947f35	-0.20289576080630814
41	0xbfc62e5f8ac27ec0	-0.17329019809129953
42	0xbfbfa8f06df2b563	-0.12367155727652838
43	0xbfd572a4a5e2a6df	-0.33512226295225206
44	0xbfb08cd6d6d83826	-0.06464903588514001
45	0x3faf8af560b1727b	0.06160704427086202
46	0x3f959ed82ade9897	0.021113755814120862
47	0x3f96698754e3044b	0.02188693481071295
48	0x3fa70b396b06acbe	0.04500750953169462
49	0x3fb3d160a436ea63	0.07741359719413192
50	0xbfd79d87269c21c3	-0.368989741997691
51	0xbfc97b6551d51208	-0.19907824035375676
52	0xbfc3d30e2fa516ee	-0.1548784001008054
53	0x3fb022f8e85303ec	0.06303363487224062
54	0xbf82ec22052da211	-0.009239450247791077
55	0xbf8fdfbf37091a9a	-0.01556348215775687
56	0xbfbd5dd3458acb75	-0.11471291015440761
57	0x3fd872952e1a8b67	0.38199357511819304
58	0xbfd930d7d8903c38	-0.39360614918490766
59	0xbfc626af74580362	-0.17305558377122582
60	0xbfd96f58553f22b6	-0.3974209625708157
61	0xbfc3c872e3803ceb	-0.1545547114223845
62	0x3fd1faf805eb48f3	0.28094292238269175
63	0xbfb84894fd971ae5	-0.09485751334350885
64	0x3fc3b4d279338a1d	0.15395575445207124
65	0xbf91ec2468df6ae8	-0.017502373600886495
66	0xbfc59b58eee28816	-0.1688033262663004
67	0x3fb9c4bf6c72f9b2	0.1006583823936811
68	0xbfc690bb1e374144	-0.17629183745749277
69	0xbfdda2ed108b19e5	-0.4630692159229553
70	0xbfa4aa259f713888	-0.040360618317763886
71	0xbf9061e63990c7b7	-0.015998456252596074
72	0xbfa6969d37587767	-0.04411784458737494
73	0xbfafbc4cff136bbb	-0.0619834958431151
74	0x3fc0ce19515016e6	0.1312896391902349
75	0xbfc9032f1cbc763a	-0.19540966895231
76	0x3fa1fe4fe9f5a17b	0.03514337283087606
77	0x3fbf55f2bfe3b099	0.12240521607208378
78	0x3f928c1ff8e8f31b	0.01811265904165103
79	0x3f612c20364b2689	0.0020962361471433305
80	0xbfc05da6227b6601	-0.12785793956463468
81	0x3fb5a31881e7377f	0.08451989337410558
82	0xbfc7b5dc79a551bc	-0.18523746433005595
83	0xbfd1be92240400da	-0.27725652234222553
84	0x3fba8aff571a39d9	0.1036834323551611
85	0xbfb695bd6a42cede	-0.08822234958898487
86	0xbfc23f9b1cb52b94	-0.14256609822981814
87	0xbfc560fe890a5471	-0.16702253047393215
88	0xbfc3c26171abf28a	-0.15436952638983242
89	0xbfabc5f24c0f3d92	-0.05424458673916911
90	0xbf2d8a1c6a529b36	-0.00022536846987472055
91	0xbfac329d81ca80e4	-0.055073663800841804
92	0x3fa28909e2e7f951	0.036201771687034985
93	0xbf8516a8110f1e6a	-0.010297120113946085
94	0xbfca8ec3c4a95638	-0.20748183348284654
95	0xbfb29fe05c132127	-0.07275202033918458
96	0xbfca14880586ee9e	-0.2037515665996254
97	0xbf7f1d151d7f95ce	-0.007596094590529968
98	0x3fac76251d0a7aa4	0.055588874621425505
99	0xbfa9a946dc31214b	-0.05011960447206095
100	0x3fbd776c77489df7	0.11510351097296466
101	0x3f896a38505d5bd4	0.012409629776511645
102	0xbfd883dc828356ee	-0.3830481791058976
103	0xbfdf4ca323eea319	-0.4890525675678404
104	0xbfc02ce0af56adce	-0.1263695579667527
105	0xbfc7db1eaeee48b1	-0.1863745073465615
106	0xbfb905256edfb566	-0.09773477513200177
107	0xbfce5956cc0569fd	-0.23710141145677702
108	0xbfac7f8d2a1876a2	-0.0556606401334936
109	0x3fbc104d2a4f0462	0.10962374003340039
110	0xbfbd2c1b32c77fb2	-0.11395425786713423
111	0xbfb2de75ee063cd8	-0.07370698033468004
112	0x3fb7d3bf22a6deac	0.0930747470473487
113	0x3fb3d56fbc2ea51a	0.07747553200046689
114	0xbfc3bc3e9b87e566	-0.15418226808814522
115	0xbfc52145123a6aeb	-0.16507781400726826
116	0x3fa532d125b5780d	0.04140332780183096
117	0xbfcbda885ec13e7d	-0.21760658861829887
118	0x3fc1b4db0555cd68	0.13833177338129166
119	0x3f95b55b3debaf86	0.02119963231500279
120	0x3f9c20dfcdde48ca	0.02746915525455832
121	0xbfb32a6439fefdd4	-0.07486559310836266
122	0xbfab277e63be56a1	-0.05303568809101234
123	0xbfb0759f7159f2d2	-0.06429478185050222
124	0xbfd1de0a7192dffb	-0.2791772946470698
125	0xbfb418e9bd221096	-0.07850514285570606
126	0xbfc5a0ebcb8c6b5e	-0.16897342146770716
127	0x3f6a7edef27e7519	0.0032343248785326015
128	0xbf97820b5242aec3	-0.02295701684549446
129	0xbfaf582eb6a537a5	-0.061219653888300564
130	0x3fb0ac58e9f18a26	0.06512981139670923
131	0x3fb9c6b8179e5ba5	0.10068846298814423
132	0x3fa572f2a8458376	0.04189260772796548
133	0xbfab342433233a1e	-0.053132182352431764
134	0x3fb16a0dd01ea13e	0.06802450495763865
135	0xbfb86774115d216b	-0.09532857345505412
136	0xbf84e28c238d0351	-0.010197729906964577
137	0xbf9ef49ca2d999b1	-0.0302299951930764
138	0xbf92df8a9561eede	-0.018430867545688005
139	0x3fb2dd89e052662f	0.0736929104481525
140	0x3fb0f108e7735613	0.06617789888999707
141	0xbfae337d05b65c74	-0.05898657507639707
142	0x3f9fb5a228568770	0.030966314041172394
143	0x3f9914e22444962e	0.0244937262188129
144	0xbf9423e7ce852a7f	-0.019668218593589245
145	0xbfb4c7a5451a3bcd	-0.08117134987899917
146	0x3fb3c6a037919de7	0.07724953991566218
147	0xbfb606d5653e82dd	-0.08604177209646076
148	0xbfa2841075cce54f	-0.03616382062905165
149	0xbf77b69545345a14	-0.005789359175898418
150	0xbf956f903949ca31	-0.02093339299831082
151	0x3fb77e05b0c22de5	0.09176669659989718
152	0xbfb14fdbf44a1526	-0.0676248046311981
153	0xbf733459d6c20d22	-0.004688597615430086
154	0xbf71278ad0a67225	-0.004188101049660752
155	0x3f937aca013f5efd	0.019023090673583976
156	0xbfb3f611beefa34e	-0.07797346984410788
157	0x3faa239f4036c112	0.05105302485333331
158	0x3fbfd52d9f227f49	0.12434659133077476
159	0x3f9deff049268b57	0.029235605683094103
160	0xbfb5085f3591e49e	-0.08215899522646672
161	0x3f7226d17ec00870	0.004431551304152945
162	0xbf959f122abd932f	-0.021114620073961973
163	0x3fa6546f13384dc9	0.043612929435905175
164	0x3fba110a61bef051	0.10182251821874046
165	0xbfbdaa3d43b83afc	-0.115878895791166
166	0xbfa3dd3f60933006	-0.03879735998052074
167	0xbfbedfe9cda06ec8	-0.12060414571936484
168	0x3fb5d52572de42c6	0.08528360418700762
169	0xbfa6244ab9f4557a	-0.04324563522292642
170	0x3fb6c949bd7b52b2	0.0890089118577844
171	0xbfa0d0fd75ee458a	-0.032844467779010136
172	0x3f6e8ede469cce62	0.0037302342724617058
173	0xbf96e1a44910e766	-0.022345129928204165
174	0x3fa50ca4feef28f1	0.04111209499349567
175	0x3f755906ecd1854b	0.0052118559370638124
176	0x3fba6066ab83f5cc	0.1030334633578242
177	0x3fb37ad3c8841511	0.07609294553192948
178	0x3f8b40de7e12c084	0.013307321760607012
179	0x3f5eba4c2775de32	0.0018754714672847392
180	0xbfa95baed3033db9	-0.049527610071546
181	0xbfab869d647707cd	-0.05376140452746334
182	0xbfafc6b201c46bb7	-0.06206280013630965
183	0x3fb041f4c5c97c06	0.06350641087327355
184	0x3fbe7100752d0548	0.11891177044619383
185	0xbfaf41b35ad91c38	-0.061048130836347914
186	0xbfa64f36941e5387	-0.04357309873663611
187	0xbf97213f293b42d5	-0.02258776368290934
188	0xbfb1577299cdee1c	-0.06774059538832272
189	0x3fa2c789aecbead2	0.0366786027788827
190	0xbf93430e625b55b1	-0.018810486558171472
191	0xbf8f86c585f9e2bd	-0.015393775130392634
192	0xbfc248858003945a	-0.1428381800716661
193	0xbf8a41f31f2d2426	-0.01282110155956857
194	0x3fab931b9b8b375d	0.05385671876648133
195	0xbf901c3a314c98ee	-0.015732678660378356
196	0xbfc07338cb33780f	-0.1285162918274527
197	0x3fd6d54575d8275e	0.3567670489143121
198	0x3f9bdf52e00f4606	0.027219099927441114
199	0xbf7c4aeacd433177	-0.006907384104306017
200	0x3fc11203aa484393	0.13336225332798488
201	0xbfada01a4ddc4b9e	-0.0578621120495406
202	0xbf8c908f03dd4b87	-0.013947598748620183
203	0xbfda9788722ec5a9	-0.41549883986143726
204	0xbfa4917f70b2f8f2	-0.040172560221877776
205	0x3fb43cc04de63b2e	0.07905198957290047
206	0xbfcbc0cfb11ed1c1	-0.21682163380104494
207	0xbfc5af2751e00ed1	-0.16940776346029066
208	0xbfb3d6abbd0647a9	-0.0774943672643348
209	0xbfb35cc16b38a844	-0.07563408725460002
210	0xbfd181b0118b25c7	-0.27354051316487155
211	0xbfd39b7c33418a1c	-0.3063650608584412
212	0xbfb70338d6c318d4	-0.08989291423049234
213	0xbfc2719aeead9513	-0.1440919557018466
214	0xbf68833377fd71dd	-0.00299224903566951
215	0xbf94e4c2daf2edb6	-0.020403904546339745
216	0x3fdd05ee2a30cae3	0.4534869586961305
217	0x3f8f3aa9cd155000	0.0152486100875322
218	0xbfc010e33c709793	-0.12551536990320908
219	0x3f96cbaffea16e6e	0.022261381069581913
220	0x3fb2e3db15cf762f	0.0737893036125221
221	0x3fc73035442299cb	0.18115869357025213
222	0xbfc483af162e66ed	-0.16026867468899955
223	0x3f8c2de0341ebfd3	0.01375937613542525
224	0x3fd099d65384e7cd	0.2593894782654587
225	0xbf9b7adaa8266ae5	-0.026835838807168683
226	0x3f83c523e3542ab8	0.009653358817123134
227	0x3fa02a3fc7b232c0	0.03157233536430715
228	0xbfa3438c4085e89c	-0.03762472427020322
229	0x3fbac7a7c7306de8	0.10460899937645929
230	0x3fdaa971f3de5bf4	0.41659210982601214
231	0x3fdab9784cbd53da	0.41757018560502746
232	0xbfc644321ed229d8	-0.17395617012910125
233	0xbfd252b98f0eca58	-0.28629912348256914
234	0xbfae9474241ecd06	-0.059726361664980174
235	0xbfd19918506922e7	-0.2749691758404382
236	0xbfb76129b4fba612	-0.09132633846788732
237	0x3fb03daf430b5171	0.0634412325555951
238	0xbfa76d6c3d71f4e5	-0.04575670480788022
239	0x3fc4bfabbf1787cc	0.1620993311944957
240	0xbfa37690ecbd255b	-0.038013962649140885
241	0xbfb0b517f9a515f7	-0.06526326985211726
242	0xbfd772a0f9284d25	-0.36637138683109277
243	0xbfc9a89ce61f78b3	-0.2004581569335123
244	0xbfc9152b6a8e923e	-0.19595854475950775
245	0x3fd8c40b2f6e40db	0.38696555740263044
246	0x3fc47faf25e1a3a1	0.1601466116874493
247	0x3fc548b1f53590aa	0.16628097985370022
248	0xbfbf64d19d87bccb	-0.12263212295487162
249	0x3fe38fe7fdafda86	0.6113166765997711
250	0xbfd039a831d73eb8	-0.25351910464540195
251	0xbfc68d8ef0bc1f35	-0.1761950183356419
252	0xbfce705c200ba697	-0.23780395092699244
253	0x3f710871e4b68037	0.00415844430554562
254	0xbfcb384456462163	-0.21265463078112665
255	0xbfba2cab6695ea4d	-0.10224410299807936

fc.weight f8 [2, 64]
0	0x3fd161702c2e0024	0.2715721541826517
1	0x3fc647d0826545a2	0.1740666042992816
2	0xbfd52024592bf955	-0.3300867911165331
3	0x3fd1f93bcf815aa0	0.28083701385677706
4	0xbfd35088cd6d4e38	-0.30179042874553685
5	0x3fc857632698f6d7	0.19016684898990974
6	0x3fcf326238c75336	0.2437250878562282
7	0x3fb0471baecc3b0e	0.06358502404712515
8	0xbfd771bcda1ae1ea	-0.36631699847524024
9	0x3f63a847403a9ad3	0.002399577295210656
10	0x3fd0840fff24b2c5	0.25806045452445076
11	0x3fa7972dc885b57f	0.04607527802259436
12	0xbfd359d1c16808ca	-0.3023571385130138
13	0xbfd345bba47e51a4	-0.30113116325198974
14	0xbfa9edf2c2985a53	-0.05064352631977855
15	0x3f65a9802341fe3c	0.002644300717349583
16	0x3fd737b297a9dc69	0.3627745133484895
17	0x3fd4914fcde8ec00	0.32136912449249166
18	0x3fb34a958cac136e	0.07535681423548876
19	0x3fb16edede1389bd	0.06809800073418777
20	0xbfcd0c81ba645c71	-0.22694417573140727
21	0xbfc44cbbda988eca	-0.1585917298663076
22	0x3fce7c0b5e22f84b	0.23816053482545593
23	0xbfd0d3b3aa6b16b2	-0.2629212536088331
24	0xbfc5ba877939c76e	-0.16975491923545455
25	0xbfd05217b1956ce4	-0.2550105318275213
26	0x3faa3ee82d30452d	0.05126119186037168
27	0x3fccb3a793601f38	0.22423262306278402
28	0x3fd19c172b1cd232	0.2751520081540405
29	0xbfd177129cb6a9c5	-0.2728926210790202
30	0x3fc665c46c2ac9f6	0.17498069078062856
31	0x3fd4394d58680af0	0.3159974444717326
32	0xbf736f981af6a5a6	-0.004745096360616518
33	0xbfd25b534955370c	-0.28682405625737384
34	0x3fd6bb6ebf3edc5c	0.3551899783737491
35	0x3fd26da642347aaf	0.2879424711735891
36	0x3fd5a9666c50f100	0.33846436097861954
37	0x3fd3516dde155022	0.30184504211251995
38	0x3fc7e3843baa92de	0.1866307536448834
39	0xbfc2866b09122232	-0.1447271150866683
40	0x3fd2d197801f1d21	0.2940424681841752
41	0xbfc64ed977a7959a	-0.17428129522810992
42	0xbfd4cf6edc32f679	-0.3251607084638191
43	0x3fb70bc5a2872131	0.09002337663617223
44	0x3fd315cb03f911d4	0.2982051409528854
45	0xbfd82b9f21630fa7	-0.37766245136685445
46	0xbfa9b6e8570063fe	-0.050223599071792066
47	0xbfd9a59af268e277	-0.40073274300406275
48	0xbfd147e7805dc992	-0.2700136903360085
49	0x3fbe8f67577da34a	0.11937566648488232
50	0xbfc9ce9e5526d94f	-0.2016179958133741
51	0xbfcbf6d08f02e89e	-0.21846968634583147
52	0x3fc574f7bc8c308f	0.1676320715563446
53	0x3fd61a1a1d550029	0.3453431402631418
54	0xbfd3ee8d21ed4d6e	-0.3114350158040996
55	0x3fd234d1b91c5b0f	0.28447383000586596
56	0xbfd2c31360d96246	-0.29315647561955804
57	0xbfe163bd5564f81f	-0.5434252422198859
58	0x3faa36f3f6f65096	0.05120050801920788
59	0x3fd2873924318ab0	0.2895033696606033
60	0xbfcfa06af8df0d35	-0.2470830645744201
61	0x3fce8c76b4aebf3b	0.23866161177056164
62	0xbf7c2c61ff24fd61	-0.0068782642359218335
63	0x3fc006a6451f980a	0.12520292639891323
64	0x3fc160feb211c8c2	0.13577254957960433
65	0xbfc31dc3d72f485f	-0.1493458557802709
66	0x3fc3a829791e61c0	0.15356939710615158
67	0xbfd1334d4ef0b658	-0.2687562247182078
68	0xbfbc370646525aaf	-0.11021460739935195
69	0x3fd21917482ff84e	0.28278142976330833
70	0xbfc1a14dc72a448c	-0.1377351019369012
71	0x3fcd83b9779bf0b5	0.23058241215028877
72	0x3fcb691265e5ec12	0.21414403892035289
73	0x3f568664e27b5bf7	0.0013748154832933215
74	0x3fcb9331bea14836	0.21542951400857796
75	0x3fc3162895cb29f5	0.1491137248434168
76	0xbfbd82b7b7ce85c9	-0.1152758430239579
77	0x3fa249800166e5ee	0.035717010661254864
78	0xbf90ed1c9ca11a2f	-0.016529509601492073
79	0x3fd05ab7e5bd6dd5	0.255537008624484
80	0xbfbfbff30c719508	-0.12402266553688801
81	0x3fba9350014d47cf	0.10381031066688638
82	0x3fc2868ba81edb8d	0.1447310038472235
83	0x3fc996ddc6874ae1	0.19991657441877123
84	0x3fb3ab38bf8f7516	0.07683138539092157
85	0xbfcd980b1d604593	-0.23120249685647973
86	0x3fc37fdb28f451c7	0.1523393583271526
87	0xbfc574f394b5d8a3	-0.16763157616850774
88	0xbfe040cf90ca12bd	-0.5079114749829255
89	0xbfadd0f9fe9bcc41	-0.05823498948111495
90	0xbfc28c7e04c85419	-0.14491248353502398
91	0x3fd55be356f98bf1	0.3337334012377929
92	0xbfa2fc87bdf493c0	-0.037082902849113974
93	0xbfd355d0f8d6741b	-0.30211281109387905
94	0xbfc979d25401a5b4	-0.19903020002247518
95	0xbfb438a16c198bc7	-0.07898911370425231
96	0x3fd3639f7de1cc31	0.30295550625959594
97	0xbfd27ea377e97791	-0.28897940359262814
98	0x3fb571af46d7d72c	0.08376594047134905
99	0xbfcbd12f36e36faf	-0.21732130222414756
100	0xbfc3a97e1c779213	-0.1536100043296221
101	0xbfd23b2e14c87e14	-0.2848620608292276
102	0xbfd995815d76c390	-0.39975008132301415
103	0xbfe35f5378c881c1	-0.6053864821479281
104	0xbfb2919ba3a7b2d3	-0.07253430123791853
105	0xbfc8e76fe1c1a798	-0.19456289790406056
106	0x3fbd41296babd0df	0.11427554014864282
107	0x3fbcc184a5dcd41f	0.1123278527200715
108	0x3fc09679659de45a	0.12959210836177953
109	0xbf664cfed2902967	-0.002722261142939764
110	0xbfd340b9b7f8d274	-0.3008255287743744
111	0xbfcd40cf64c3c2c4	-0.22854034824515257
112	0xbfa6c1d0b7dbfe7f	-0.04444744343163353
113	0xbfccaa1fe4ed7cca	-0.22394179037198675
114	0xbfbf0f6fecac93a3	-0.12132930305649707
115	0xbfb575141faa7bed	-0.08381772778601233
116	0xbfc87d593ab5a8f6	-0.1913253342311873
117	0x3fd62b9c5dc05294	0.3464117923297547
118	0x3fcc414ba58025c2	0.22074266034205264
119	0xbfcc4eda800c5dee	-0.22115641834601213
120	0x3fbe6b0e02e8cbb3	0.1188210255721021
121	0xbfd39ba9884fe241	-0.3063758689091039
122	0xbfc4b396450dedc2	-0.16173056003377267
123	0x3fb18c9729e4c6f8	0.06855149052423914
124	0xbfc847f99143cc4b	-0.18969649880418368
125	0x3fb597b0dfc92faf	0.08434586967012934
126	0x3fcd61fad73f8d19	0.22955260763328836
127	0xbfd0566bd1b9fb1f	-0.2552747295484767

fc.bias f8 [2]
0	0x3fb40bf84b05c0b2	0.07830764609912214
1	0x3fa6f5f13901d4e4	0.044845140656357946
